…
I0117 19:16:26.530064 20908 net.cpp:322] The NetState phase (0) differed from the phase (1) specified by a rule in layer accuracy
I0117 19:16:26.530064 20908 net.cpp:58] Initializing net from parameters: 
name: "LeNet"
state {
  phase: TRAIN
  level: 0
  stage: ""
}
layer {
  name: "mnist"
  type: "Data"
  top: "data"
  top: "label"
  include {
    phase: TRAIN
  }
  transform_param {
    scale: 0.00390625
  }
  data_param {
    source: "H:/1/caffe-windows/examples/face/lmdb/train"
    batch_size: 64
    backend: LMDB
  }
}
layer {
  name: "conv1"
  type: "Convolution"
  bottom: "data"
  top: "conv1"
  param {
    lr_mult: 1
  }
  param {
    lr_mult: 2
  }
  convolution_param {
    num_output: 20
    kernel_size: 5
    stride: 1
    weight_filler {
      type: "xavier"
    }
    bias_filler {
      type: "constant"
    }
  }
}
layer {
  name: "pool1"
  type: "Pooling"
  bottom: "conv1"
  top: "pool1"
  pooling_param {
    pool: MAX
    kernel_size: 2
    stride: 2
  }
}
layer {
  name: "conv2"
  type: "Convolution"
  bottom: "pool1"
  top: "conv2"
  param {
    lr_mult: 1
  }
  param {
    lr_mult: 2
  }
  convolution_param {
    num_output: 50
    kernel_size: 5
    stride: 1
    weight_filler {
      type: "xavier"
    }
    bias_filler {
      type: "constant"
    }
  }
}
layer {
  name: "pool2"
  type: "Pooling"
  bottom: "conv2"
  top: "pool2"
  pooling_param {
    pool: MAX
    kernel_size: 2
    stride: 2
  }
}
layer {
  name: "ip1"
  type: "InnerProduct"
  bottom: "pool2"
  top: "ip1"
  param {
    lr_mult: 1
  }
  param {
    lr_mult: 2
  }
  inner_product_param {
    num_output: 500
    weight_filler {
      type: "xavier"
    }
    bias_filler {
      type: "constant"
    }
  }
}
layer {
  name: "relu1"
  type: "ReLU"
  bottom: "ip1"
  top: "ip1"
}
layer {
  name: "ip2"
  type: "InnerProduct"
  bottom: "ip1"
  top: "ip2"
  param {
    lr_mult: 1
  }
  param {
    lr_mult: 2
  }
  inner_product_param {
    num_output: 7
    weight_filler {
      type: "xavier"
    }
    bias_filler {
      type: "constant"
    }
  }
}
layer {
  name: "loss"
  type: "SoftmaxWithLoss"
  bottom: "ip2"
  bottom: "label"
  top: "loss"
}
I0117 19:16:26.530064 20908 layer_factory.cpp:58] Creating layer mnist
I0117 19:16:26.530064 20908 common.cpp:36] System entropy source not available, using fallback algorithm to generate seed instead.
I0117 19:16:26.531061 20908 net.cpp:100] Creating Layer mnist
I0117 19:16:26.531061 20908 net.cpp:408] mnist -> data
I0117 19:16:26.531061 20908 net.cpp:408] mnist -> label
I0117 19:16:26.531061 29944 common.cpp:36] System entropy source not available, using fallback algorithm to generate seed instead.
I0117 19:16:26.533082 29944 db_lmdb.cpp:40] Opened lmdb H:/1/caffe-windows/examples/face/lmdb/train
I0117 19:16:26.595890 20908 data_layer.cpp:41] output data size: 64,1,48,48
I0117 19:16:26.596886 20908 net.cpp:150] Setting up mnist
I0117 19:16:26.596886 20908 net.cpp:157] Top shape: 64 1 48 48 (147456)
I0117 19:16:26.596886 20908 net.cpp:157] Top shape: 64 (64)
I0117 19:16:26.596886 20908 net.cpp:165] Memory required for data: 590080
I0117 19:16:26.596886 20908 layer_factory.cpp:58] Creating layer conv1
I0117 19:16:26.596886 20908 net.cpp:100] Creating Layer conv1
I0117 19:16:26.596886 20908 net.cpp:434] conv1 <- data
I0117 19:16:26.596886 20908 net.cpp:408] conv1 -> conv1
I0117 19:16:26.597908 19492 common.cpp:36] System entropy source not available, using fallback algorithm to generate seed instead.
I0117 19:16:27.569285 20908 net.cpp:150] Setting up conv1
I0117 19:16:27.569285 20908 net.cpp:157] Top shape: 64 20 44 44 (2478080)
I0117 19:16:27.569285 20908 net.cpp:165] Memory required for data: 10502400
I0117 19:16:27.569285 20908 layer_factory.cpp:58] Creating layer pool1
I0117 19:16:27.569285 20908 net.cpp:100] Creating Layer pool1
I0117 19:16:27.569285 20908 net.cpp:434] pool1 <- conv1
I0117 19:16:27.569285 20908 net.cpp:408] pool1 -> pool1
I0117 19:16:27.569285 20908 net.cpp:150] Setting up pool1
I0117 19:16:27.569285 20908 net.cpp:157] Top shape: 64 20 22 22 (619520)
I0117 19:16:27.569285 20908 net.cpp:165] Memory required for data: 12980480
I0117 19:16:27.569285 20908 layer_factory.cpp:58] Creating layer conv2
I0117 19:16:27.569285 20908 net.cpp:100] Creating Layer conv2
I0117 19:16:27.569285 20908 net.cpp:434] conv2 <- pool1
I0117 19:16:27.569285 20908 net.cpp:408] conv2 -> conv2
I0117 19:16:27.572276 20908 net.cpp:150] Setting up conv2
I0117 19:16:27.572276 20908 net.cpp:157] Top shape: 64 50 18 18 (1036800)
I0117 19:16:27.572276 20908 net.cpp:165] Memory required for data: 17127680
I0117 19:16:27.572276 20908 layer_factory.cpp:58] Creating layer pool2
I0117 19:16:27.572276 20908 net.cpp:100] Creating Layer pool2
I0117 19:16:27.572276 20908 net.cpp:434] pool2 <- conv2
I0117 19:16:27.572276 20908 net.cpp:408] pool2 -> pool2
I0117 19:16:27.572276 20908 net.cpp:150] Setting up pool2
I0117 19:16:27.572276 20908 net.cpp:157] Top shape: 64 50 9 9 (259200)
I0117 19:16:27.572276 20908 net.cpp:165] Memory required for data: 18164480
I0117 19:16:27.572276 20908 layer_factory.cpp:58] Creating layer ip1
I0117 19:16:27.572276 20908 net.cpp:100] Creating Layer ip1
I0117 19:16:27.572276 20908 net.cpp:434] ip1 <- pool2
I0117 19:16:27.572276 20908 net.cpp:408] ip1 -> ip1
I0117 19:16:27.584275 20908 net.cpp:150] Setting up ip1
I0117 19:16:27.584275 20908 net.cpp:157] Top shape: 64 500 (32000)
I0117 19:16:27.584275 20908 net.cpp:165] Memory required for data: 18292480
I0117 19:16:27.584275 20908 layer_factory.cpp:58] Creating layer relu1
I0117 19:16:27.584275 20908 net.cpp:100] Creating Layer relu1
I0117 19:16:27.584275 20908 net.cpp:434] relu1 <- ip1
I0117 19:16:27.584275 20908 net.cpp:395] relu1 -> ip1 (in-place)
I0117 19:16:27.585242 20908 net.cpp:150] Setting up relu1
I0117 19:16:27.585242 20908 net.cpp:157] Top shape: 64 500 (32000)
I0117 19:16:27.585242 20908 net.cpp:165] Memory required for data: 18420480
I0117 19:16:27.585242 20908 layer_factory.cpp:58] Creating layer ip2
I0117 19:16:27.585242 20908 net.cpp:100] Creating Layer ip2
I0117 19:16:27.585242 20908 net.cpp:434] ip2 <- ip1
I0117 19:16:27.585242 20908 net.cpp:408] ip2 -> ip2
I0117 19:16:27.585242 20908 net.cpp:150] Setting up ip2
I0117 19:16:27.586273 20908 net.cpp:157] Top shape: 64 7 (448)
I0117 19:16:27.586273 20908 net.cpp:165] Memory required for data: 18422272
I0117 19:16:27.586273 20908 layer_factory.cpp:58] Creating layer loss
I0117 19:16:27.586273 20908 net.cpp:100] Creating Layer loss
I0117 19:16:27.586273 20908 net.cpp:434] loss <- ip2
I0117 19:16:27.586273 20908 net.cpp:434] loss <- label
I0117 19:16:27.586273 20908 net.cpp:408] loss -> loss
I0117 19:16:27.586273 20908 layer_factory.cpp:58] Creating layer loss
…
I0117 19:16:27.587267 20908 solver.cpp:181] Creating test net (#0) specified by net file: H:/1/caffe-windows/examples/face/lenet_train_test.prototxt
I0117 19:16:27.587267 20908 net.cpp:322] The NetState phase (1) differed from the phase (0) specified by a rule in layer mnist
I0117 19:16:27.587267 20908 net.cpp:58] Initializing net from parameters: 
name: "LeNet"
state {
  phase: TEST
}
layer {
  name: "mnist"
  type: "Data"
  top: "data"
  top: "label"
  include {
    phase: TEST
  }
  transform_param {
    scale: 0.00390625
  }
  data_param {
    source: "H:/1/caffe-windows/examples/face/lmdb/test"
    batch_size: 100
    backend: LMDB
  }
}
layer {
  name: "conv1"
  type: "Convolution"
  bottom: "data"
  top: "conv1"
  param {
    lr_mult: 1
  }
  param {
    lr_mult: 2
  }
  convolution_param {
    num_output: 20
    kernel_size: 5
    stride: 1
    weight_filler {
      type: "xavier"
    }
    bias_filler {
      type: "constant"
    }
  }
}
layer {
  name: "pool1"
  type: "Pooling"
  bottom: "conv1"
  top: "pool1"
  pooling_param {
    pool: MAX
    kernel_size: 2
    stride: 2
  }
}
layer {
  name: "conv2"
  type: "Convolution"
  bottom: "pool1"
  top: "conv2"
  param {
    lr_mult: 1
  }
  param {
    lr_mult: 2
  }
  convolution_param {
    num_output: 50
    kernel_size: 5
    stride: 1
    weight_filler {
      type: "xavier"
    }
    bias_filler {
      type: "constant"
    }
  }
}
layer {
  name: "pool2"
  type: "Pooling"
  bottom: "conv2"
  top: "pool2"
  pooling_param {
    pool: MAX
    kernel_size: 2
    stride: 2
  }
}
layer {
  name: "ip1"
  type: "InnerProduct"
  bottom: "pool2"
  top: "ip1"
  param {
    lr_mult: 1
  }
  param {
    lr_mult: 2
  }
  inner_product_param {
    num_output: 500
    weight_filler {
      type: "xavier"
    }
    bias_filler {
      type: "constant"
    }
  }
}
layer {
  name: "relu1"
  type: "ReLU"
  bottom: "ip1"
  top: "ip1"
}
layer {
  name: "ip2"
  type: "InnerProduct"
  bottom: "ip1"
  top: "ip2"
  param {
    lr_mult: 1
  }
  param {
    lr_mult: 2
  }
  inner_product_param {
    num_output: 7
    weight_filler {
      type: "xavier"
    }
    bias_filler {
      type: "constant"
    }
  }
}
layer {
  name: "accuracy"
  type: "Accuracy"
  bottom: "ip2"
  bottom: "label"
  top: "accuracy"
  include {
    phase: TEST
  }
}
layer {
  name: "loss"
  type: "SoftmaxWithLoss"
  bottom: "ip2"
  bottom: "label"
  top: "loss"
}
I0117 19:16:27.587267 20908 layer_factory.cpp:58] Creating layer mnist
I0117 19:16:27.587267 20908 net.cpp:100] Creating Layer mnist
I0117 19:16:27.587267 20908 net.cpp:408] mnist -> data
I0117 19:16:27.587267 20908 net.cpp:408] mnist -> label
I0117 19:16:27.588268 23248 common.cpp:36] System entropy source not available, using fallback algorithm to generate seed instead.
I0117 19:16:27.589262 23248 db_lmdb.cpp:40] Opened lmdb H:/1/caffe-windows/examples/face/lmdb/test
I0117 19:16:27.590253 20908 data_layer.cpp:41] output data size: 100,1,48,48
I0117 19:16:27.593221 20908 net.cpp:150] Setting up mnist
I0117 19:16:27.593221 20908 net.cpp:157] Top shape: 100 1 48 48 (230400)
I0117 19:16:27.593221 20908 net.cpp:157] Top shape: 100 (100)
I0117 19:16:27.593221 20908 net.cpp:165] Memory required for data: 922000
I0117 19:16:27.593221 20908 layer_factory.cpp:58] Creating layer label_mnist_1_split
I0117 19:16:27.593221 20908 net.cpp:100] Creating Layer label_mnist_1_split
I0117 19:16:27.593221 20908 net.cpp:434] label_mnist_1_split <- label
I0117 19:16:27.593221 20908 net.cpp:408] label_mnist_1_split -> label_mnist_1_split_0
I0117 19:16:27.593221 20908 net.cpp:408] label_mnist_1_split -> label_mnist_1_split_1
I0117 19:16:27.594218 20908 net.cpp:150] Setting up label_mnist_1_split
I0117 19:16:27.594218 20908 net.cpp:157] Top shape: 100 (100)
I0117 19:16:27.594218 20908 net.cpp:157] Top shape: 100 (100)
I0117 19:16:27.594218 20908 net.cpp:165] Memory required for data: 922800
I0117 19:16:27.594218 20908 layer_factory.cpp:58] Creating layer conv1
I0117 19:16:27.594218 20908 net.cpp:100] Creating Layer conv1
I0117 19:16:27.594218 20908 net.cpp:434] conv1 <- data
I0117 19:16:27.594218 20908 net.cpp:408] conv1 -> conv1
I0117 19:16:27.595239 27420 common.cpp:36] System entropy source not available, using fallback algorithm to generate seed instead.
I0117 19:16:27.597209 20908 net.cpp:150] Setting up conv1
I0117 19:16:27.597209 20908 net.cpp:157] Top shape: 100 20 44 44 (3872000)
I0117 19:16:27.597209 20908 net.cpp:165] Memory required for data: 16410800
I0117 19:16:27.597209 20908 layer_factory.cpp:58] Creating layer pool1
I0117 19:16:27.597209 20908 net.cpp:100] Creating Layer pool1
I0117 19:16:27.597209 20908 net.cpp:434] pool1 <- conv1
I0117 19:16:27.597209 20908 net.cpp:408] pool1 -> pool1
I0117 19:16:27.597209 20908 net.cpp:150] Setting up pool1
I0117 19:16:27.597209 20908 net.cpp:157] Top shape: 100 20 22 22 (968000)
I0117 19:16:27.597209 20908 net.cpp:165] Memory required for data: 20282800
I0117 19:16:27.597209 20908 layer_factory.cpp:58] Creating layer conv2
I0117 19:16:27.597209 20908 net.cpp:100] Creating Layer conv2
I0117 19:16:27.597209 20908 net.cpp:434] conv2 <- pool1
I0117 19:16:27.597209 20908 net.cpp:408] conv2 -> conv2
I0117 19:16:27.599203 20908 net.cpp:150] Setting up conv2
I0117 19:16:27.599203 20908 net.cpp:157] Top shape: 100 50 18 18 (1620000)
I0117 19:16:27.599203 20908 net.cpp:165] Memory required for data: 26762800
I0117 19:16:27.599203 20908 layer_factory.cpp:58] Creating layer pool2
I0117 19:16:27.599203 20908 net.cpp:100] Creating Layer pool2
I0117 19:16:27.599203 20908 net.cpp:434] pool2 <- conv2
I0117 19:16:27.599203 20908 net.cpp:408] pool2 -> pool2
I0117 19:16:27.599203 20908 net.cpp:150] Setting up pool2
I0117 19:16:27.599203 20908 net.cpp:157] Top shape: 100 50 9 9 (405000)
I0117 19:16:27.599203 20908 net.cpp:165] Memory required for data: 28382800
I0117 19:16:27.599203 20908 layer_factory.cpp:58] Creating layer ip1
I0117 19:16:27.599203 20908 net.cpp:100] Creating Layer ip1
I0117 19:16:27.599203 20908 net.cpp:434] ip1 <- pool2
I0117 19:16:27.599203 20908 net.cpp:408] ip1 -> ip1
I0117 19:16:27.612203 20908 net.cpp:150] Setting up ip1
I0117 19:16:27.612203 20908 net.cpp:157] Top shape: 100 500 (50000)
I0117 19:16:27.612203 20908 net.cpp:165] Memory required for data: 28582800
I0117 19:16:27.612203 20908 layer_factory.cpp:58] Creating layer relu1
I0117 19:16:27.612203 20908 net.cpp:100] Creating Layer relu1
I0117 19:16:27.612203 20908 net.cpp:434] relu1 <- ip1
I0117 19:16:27.612203 20908 net.cpp:395] relu1 -> ip1 (in-place)
I0117 19:16:27.612203 20908 net.cpp:150] Setting up relu1
I0117 19:16:27.612203 20908 net.cpp:157] Top shape: 100 500 (50000)
I0117 19:16:27.612203 20908 net.cpp:165] Memory required for data: 28782800
I0117 19:16:27.612203 20908 layer_factory.cpp:58] Creating layer ip2
I0117 19:16:27.612203 20908 net.cpp:100] Creating Layer ip2
I0117 19:16:27.612203 20908 net.cpp:434] ip2 <- ip1
I0117 19:16:27.612203 20908 net.cpp:408] ip2 -> ip2
I0117 19:16:27.613198 20908 net.cpp:150] Setting up ip2
I0117 19:16:27.613198 20908 net.cpp:157] Top shape: 100 7 (700)
I0117 19:16:27.613198 20908 net.cpp:165] Memory required for data: 28785600
I0117 19:16:27.613198 20908 layer_factory.cpp:58] Creating layer ip2_ip2_0_split
I0117 19:16:27.613198 20908 net.cpp:100] Creating Layer ip2_ip2_0_split
I0117 19:16:27.613198 20908 net.cpp:434] ip2_ip2_0_split <- ip2
I0117 19:16:27.613198 20908 net.cpp:408] ip2_ip2_0_split -> ip2_ip2_0_split_0
I0117 19:16:27.613198 20908 net.cpp:408] ip2_ip2_0_split -> ip2_ip2_0_split_1
I0117 19:16:27.613198 20908 net.cpp:150] Setting up ip2_ip2_0_split
I0117 19:16:27.613198 20908 net.cpp:157] Top shape: 100 7 (700)
I0117 19:16:27.613198 20908 net.cpp:157] Top shape: 100 7 (700)
I0117 19:16:27.613198 20908 net.cpp:165] Memory required for data: 28791200
I0117 19:16:27.613198 20908 layer_factory.cpp:58] Creating layer accuracy
I0117 19:16:27.613198 20908 net.cpp:100] Creating Layer accuracy
I0117 19:16:27.613198 20908 net.cpp:434] accuracy <- ip2_ip2_0_split_0
I0117 19:16:27.613198 20908 net.cpp:434] accuracy <- label_mnist_1_split_0
I0117 19:16:27.613198 20908 net.cpp:408] accuracy -> accuracy
…
